backend/trained_gnn_model.pth (torch, 6285 bytes, 6 tensors)

conv1.bias f4 [16]
000000 3e 95 56 3e 00 00 00 00 87 2c 01 be 99 51 75 3e
       0.20955369 0.0 -0.12614642 0.23956908
000010 a8 85 4a 3e 00 00 00 00 63 b4 a7 bd 1a bd 33 3e
       0.19777548 0.0 -0.08188703 0.17552605
000020 4f ff 51 3e 00 00 00 00 73 11 73 3e 00 00 00 00
       0.20507549 0.0 0.23737125 0.0
000030 00 00 00 00 00 00 00 00 00 00 00 00 00 00 00 00
       0.0 0.0 0.0 0.0

conv1.lin.weight f4 [16, 8]
000000 b8 36 21 3f fd 49 e4 3d b3 6c 24 3f 6c 22 b9 3e
       0.6297412 0.11146925 0.6422836 0.36159074
000010 ae 36 59 be a2 2b 0e 3f 5f b1 99 3d 7e 64 ab 3c
       -0.21212265 0.5553533 0.07504534 0.020921942
000020 80 7f d4 be 50 81 fe be 18 7d 12 3e c0 af df bd
       -0.41503525 -0.49708033 0.14305532 -0.109221935
000030 5c 55 47 3e 00 17 d2 be d6 0f be 3e f2 ea bb be
       0.19466156 -0.41033173 0.37121457 -0.36702687
000040 da 7f 59 be 60 0e b1 bc 28 60 07 3e e0 ee 8d 3e
       -0.21240178 -0.0216133 0.13220274 0.2772131
000050 ea b1 a8 3e cb ca 05 bf 00 34 24 b8 88 8f ae be
       0.32948238 -0.5226256 -3.9149076e-05 -0.3409388
000060 09 e1 3c 3e e6 4f 0a be 78 ae 31 3f 15 6d 01 be
       0.18445219 -0.13507041 0.69406843 -0.12639268
000070 69 95 01 3f ed a9 d4 3e bb 41 cd 3e 2d a4 02 bd
       0.50618607 0.41535893 0.4008921 -0.03189485
000080 89 a4 26 3f c3 b6 9c 3e 54 6c 84 3e 51 60 73 be
       0.6509481 0.30608186 0.25863898 -0.2376721
000090 bb 85 cf 3e dc 08 fc 3d 66 4a 11 bd 0f 84 1f 3f
       0.40531716 0.12306377 -0.035471343 0.6231088
0000a0 b0 4c e4 3d 86 a3 8d be 52 92 81 be 80 9b c3 bc
       0.111474395 -0.2766382 -0.25306946 -0.02387786
0000b0 c4 f0 8e 3e 54 d5 02 be 32 11 92 be ac 54 2f be
       0.27918065 -0.1277669 -0.28528744 -0.17122144
0000c0 66 2d e9 be b1 7c c5 3d 66 3a 9c 3e ab 77 0d bf
       -0.4554245 0.096429236 0.30513304 -0.55260724
0000d0 84 3d 0c 3d 8e a4 34 3e 43 d0 0f 3c 16 18 85 be
       0.034238353 0.17640898 0.008777681 -0.2599494
0000e0 b5 a3 df 3e e4 95 e0 3e 3c 03 ba 3e 91 46 b1 3d
       0.43679586 0.43864357 0.36330593 0.086560376
0000f0 f8 e1 32 3d ba 71 6a 3e bc a0 b4 3d c0 61 e1 3c
       0.04367253 0.22894946 0.0881972 0.027512431
000100 f2 54 06 3f f4 84 22 3f 86 76 1f 3e 0f 4f be 3d
       0.52473366 0.6348412 0.15572557 0.09292423
000110 1b 92 59 3e 09 6a 33 3e 0e a3 a6 3e 99 d4 b0 3e
       0.21247141 0.17520918 0.32546276 0.345372
000120 84 83 e8 be 84 f2 3c be cc 95 d7 3e c0 73 47 3e
       -0.45412838 -0.18451887 0.42106473 0.19477749
000130 a0 b9 cb bc 08 58 9a be 42 9f 9c be fa 50 e5 be
       -0.024868786 -0.30145288 -0.30590254 -0.44788343
000140 b9 43 98 3d cd f5 cf 3e 03 5a 0e 3f d8 cb ef 3e
       0.07434792 0.4061722 0.55606097 0.46835208
000150 8e 97 51 be f0 a3 81 bd a5 1c 22 3e ba 8c 38 3f
       -0.2046797 -0.06330097 0.1583124 0.7208973
000160 18 21 94 3d d0 97 04 be 7c d2 53 3e e8 02 43 be
       0.07232875 -0.12948537 0.20685762 -0.19044077
000170 8c b2 a5 be e4 d9 ba 3e ac ce 68 be 28 47 cd bd
       -0.32362783 0.36494362 -0.22735089 -0.100233376
000180 7e ab fe be 52 55 ab 3e 58 f4 c1 3e f4 98 3a 3e
       -0.49740213 0.33463532 0.37881732 0.1822241
000190 90 80 b2 be 18 a8 fc be f6 ea cf be 36 e6 be 3e
       -0.3486371 -0.49346995 -0.40608948 0.37285012
0001a0 6c d0 75 3e d6 6c d7 3e 56 1c 86 3e 4c 95 01 3e
       0.24005288 0.42075223 0.26193494 0.12654608
0001b0 80 71 a0 bb 86 b0 c2 be 6c 55 db be 02 73 ef be
       -0.0048963428 -0.38025302 -0.4283861 -0.46767431
0001c0 e4 97 51 3e 28 60 7b be 28 15 ce bd 50 54 93 be
       0.20468098 -0.245484 -0.10062629 -0.28775263
0001d0 d0 98 ba bd 86 2e b4 be 40 46 a7 be 00 d6 29 3e
       -0.09111178 -0.35191745 -0.32670784 0.16585541
0001e0 20 2a 18 be 34 0a 9e 3e 0c 41 24 be 10 cb bb be
       -0.1485982 0.3086716 -0.16040438 -0.36678362
0001f0 68 ac b4 bd d0 30 78 be 60 a4 1c be fc b5 f3 be
       -0.088219464 -0.2423737 -0.15297079 -0.4759978

conv2.bias f4 [32]
000000 00 00 00 00 8f ff 6b 3e 6b 8d 5e 3e 9f 74 60 3e
       0.0 0.23046707 0.21733634 0.21919487
000010 00 00 00 00 a9 0d d6 bd 63 09 d0 bd 87 bd 06 3e
       0.0 -0.10451824 -0.101580404 0.13158236
000020 c2 5f a4 bd 00 00 00 00 00 00 00 00 00 00 00 00
       -0.08026077 0.0 0.0 0.0
000030 00 00 00 00 00 00 00 00 74 fd a1 bd 00 00 00 00
       0.0 0.0 -0.079096705 0.0
000040 8d 16 6e 3e f1 3c 5d 3e 00 00 00 00 00 00 00 00
       0.2325079 0.21605279 0.0 0.0
000050 00 00 00 00 00 00 00 00 e9 11 cd bd 00 00 00 00
       0.0 0.0 -0.10013182 0.0
000060 fa 03 5e 3e 21 e2 e6 bd e6 82 6b 3e b5 ab 6b 3e
       0.21681204 -0.112735994 0.22999153 0.2301472
000070 fc 71 ef 3d 1c 28 92 bd 00 00 00 00 f9 f7 58 bd
       0.11691663 -0.071365565 0.0 -0.05297086

conv2.lin.weight f4 [32, 16]
000000 8e 04 69 be e9 e9 b2 3e 46 62 0a 3e 1e 44 11 3e
       -0.22755644 0.34944084 0.13514051 0.14186141
000010 67 9b 58 be 62 b7 1e be e0 9a 5a bd 50 6b 84 bd
       -0.21153031 -0.15499642 -0.053370357 -0.06465781
000020 1f 16 78 be c0 9c ee 3c e0 ed 0f 3d e8 5d 37 bd
       -0.24227189 0.029127479 0.035138965 -0.04476729
000030 a8 c2 48 3d 87 7e 0f be 48 71 bc 3d 16 8a 08 3e
       0.049013764 -0.1401311 0.09201294 0.13333926
000040 02 41 6a 3d b7 7e b3 be a1 ac a4 3e 06 d5 a6 3e
       0.057190903 -0.35057613 0.32162955 0.325844
000050 9a 53 8a 3d dd 72 ae 3e 92 cc 9f bd 01 6e fa 3e
       0.06754227 0.3407201 -0.078026906 0.4891205
000060 7d 26 d7 3e a1 c4 97 be f4 b6 f0 3e 40 71 a6 be
       0.42021552 -0.29642203 0.47014582 -0.32508278
000070 22 93 48 be d0 6d 71 bd e9 07 74 be ef d6 b0 3e
       -0.19587377 -0.058942616 -0.23831142 0.3453898
000080 fa 39 2b 3e 4c cc 0f 3e b3 0a 41 be f5 96 e3 3e
       0.16721335 0.14042777 -0.18851738 0.4445111
000090 e7 23 07 3e 3a b2 89 be 5b fb 01 3e 0c 4a d7 3e
       0.1319729 -0.2689379 0.12693541 0.4204868
0000a0 3a 77 0a 3f 6c 21 5d be 68 4d 8d 3d 94 36 8b 3d
       0.54088175 -0.2159478 0.0689953 0.06797519
0000b0 04 6a c4 3d 9e 31 0b 3e ca b6 46 3e ec 2f a4 bd
       0.095905334 0.13593146 0.19405666 -0.08016953
0000c0 4d 2b dc 3e cb 76 85 3e aa 89 e1 3c 56 0e f8 3e
       0.43001786 0.26067194 0.027531464 0.48448437
0000d0 b9 80 d1 3e 29 ab 9f 3e 88 47 15 be 2b fc 83 3d
       0.4091852 0.31185272 -0.14578068 0.064445816
0000e0 98 10 03 3e 40 eb 92 3c c4 f8 e3 3e a2 ac 4e be
       0.12799299 0.017934442 0.4452573 -0.20183042
0000f0 8e 41 35 3e 78 bf 01 be fe b5 5a 3e 40 82 89 bc
       0.17700788 -0.12670696 0.21358487 -0.01678574
000100 b3 96 9e be d5 35 47 be 5b 03 83 be be 8e 33 3e
       -0.3097435 -0.19454129 -0.25588498 0.1753492
000110 ae c3 72 be c0 50 f1 bc 50 39 9c 3d 43 8a 46 be
       -0.23707458 -0.02945745 0.07628119 -0.1938868
000120 e8 df d0 3d 63 c0 b0 be 57 85 81 be 9e 06 a4 be
       0.10198957 -0.3452178 -0.25297043 -0.320363
000130 5a 04 db bd c6 e3 03 be b8 5d 4f 3d 74 e4 85 bd
       -0.10694189 -0.12879857 0.050626487 -0.065377146
000140 21 83 84 3d 2b f5 a5 3e 20 47 c3 3c ee 1f 50 be
       0.06470323 0.3241361 0.023837626 -0.2032468
000150 a7 ba d9 be 90 21 03 3e 20 fe 7c be ef 18 c9 3d
       -0.42525217 0.12805772 -0.24706316 0.09819209
000160 57 26 0c 3e 4e a5 0b 3e 44 52 7e 3e 77 ee ab 3e
       0.136865 0.13637277 0.2483607 0.33580372
000170 e8 50 99 3d b8 e5 83 be eb ba a1 3e 2b c9 2b be
       0.07486135 -0.257612 0.3158792 -0.16775958
000180 d6 59 8a be 1d 79 97 3e 7c b8 34 3e d5 7f 49 3c
       -0.27021664 0.2958459 0.176485 0.012298544
000190 aa 26 9d bd 6d 44 98 be 66 07 e1 bd ad e8 78 3e
       -0.0767339 -0.29739705 -0.10987739 0.24307509
0001a0 06 90 36 bc f0 f9 f7 3c 54 4b 33 be 9c 8b fc bd
       -0.011142736 0.030270547 -0.17509204 -0.12331316
0001b0 86 c8 57 3e 70 9c b2 3c 72 88 6b 3e 24 29 80 bd
       0.21072587 0.02180311 0.23001269 -0.06257847
0001c0 c3 f4 97 3e 4c 70 15 3e c0 ed 66 3d 5c 89 ba 3e
       0.29678926 0.14593619 0.05637908 0.36432922
0001d0 fb d2 b9 3e 81 ca a7 3e cf 29 8b 3e 9a bf 5b 3d
       0.36293778 0.32771686 0.27180335 0.053649522
0001e0 ec 66 25 be bc 5f 84 3d ed 62 0d 3e 94 db bc bd
       -0.16152543 0.064635724 0.13807268 -0.09221569
0001f0 18 80 72 bd c0 38 88 3c bd 13 84 3e 88 b9 e1 3d
       -0.05920419 0.016628623 0.2579631 0.110217154
000200 58 7b 54 be 1c e1 14 be 83 b6 29 be 4a de 5b be
       -0.20750177 -0.14538997 -0.16573529 -0.21471515
000210 c9 d8 73 3e 8a c0 3f 3e c2 a1 7e 3e 9c 85 9a bd
       0.23813166 0.18725792 0.24866393 -0.07545015
000220 48 1e 0b bc a0 15 fb 3d b7 73 d6 be b8 50 01 3d
       -0.008491106 0.12259984 -0.41885158 0.03157112
000230 f0 bb c1 bc 7b fa 4a be 23 76 8c be 75 40 a0 3e
       -0.023649186 -0.19822113 -0.2743388 0.31299177
000240 41 2e 93 3e 2a cb 27 3e d7 bc ac 3e 0b eb 12 be
       0.28746226 0.16386095 0.33737823 -0.14347474
000250 10 21 7a bd 18 13 09 3e 10 46 6f bd d4 16 8e bd
       -0.061066687 0.1338619 -0.058416426 -0.06937948
000260 a4 9f 95 be 14 88 c2 3d 31 ca 5a be e0 a7 52 3c
       -0.2922336 0.09498611 -0.21366192 0.012857407
000270 4b 7d b0 3e d0 e1 de bd 24 39 e4 bd 2e 6c 5a 3e
       0.3447059 -0.10882914 -0.11143711 0.2133033
000280 cd 1a 05 be 40 ba f8 bc 53 06 a9 3e 25 6d 14 be
       -0.12998505 -0.030362248 0.33012637 -0.1449476
000290 ca 80 81 be d8 9c 4a be 4c bf c8 bd 72 c9 2b be
       -0.2529357 -0.19786394 -0.09802112 -0.16776064
0002a0 94 df 3b be 58 3e 12 3e 98 18 76 3d d4 bf e7 bd
       -0.18347007 0.14281595 0.06008205 -0.11315885
0002b0 d0 a2 8c be 9e fb e3 bd 64 cb 18 be e4 a0 eb bd
       -0.27467966 -0.111319765 -0.14921337 -0.11505297
0002c0 3c 4d a3 be c0 fc 9b 3d ca ff 84 be 4b fa 8c be
       -0.31894863 0.076165676 -0.25976402 -0.27534708
0002d0 18 e6 93 be ea 1b 17 3e fa f4 59 be 88 6e 15 be
       -0.28886485 0.14756742 -0.21284857 -0.14592946
0002e0 eb e3 8d 3e c6 3a 40 3e fe 96 4f 3e 09 e1 ab be
       0.2771295 0.1877242 0.20272443 -0.33570126
0002f0 16 cf 81 be 70 ac 08 be 25 8a 95 3e 98 25 14 3d
       -0.25353307 -0.1334703 0.29206958 0.036168665
000300 44 62 87 be 00 17 11 3b aa 97 8c be 14 a5 9e bd
       -0.26442158 0.0022138953 -0.2745946 -0.0774633
000310 6c 1a c7 bd 95 b3 9c 3e f8 45 e0 3d 30 84 7c bd
       -0.097218364 0.3060576 0.109508455 -0.0616495
000320 88 a2 74 3d 24 04 d1 bd c0 3e 0e 3e 9c 35 0f 3e
       0.059725314 -0.10205868 0.13891125 0.13985294
000330 b8 72 c2 3d 44 1d 0d be d1 6f 9a 3e f0 11 51 bd
       0.09494537 -0.13780695 0.30163434 -0.051042497
000340 9c f2 0c be fa bf 62 3e 81 8a 93 3e a5 24 b4 3e
       -0.13764423 0.22143546 0.28816608 0.35184208
000350 90 83 d6 3d 62 d5 f6 bd 66 e0 37 3e 6d 4e 9b 3e
       0.10474312 -0.12052418 0.17956695 0.30333272
000360 c9 8c b1 be 50 68 33 bd da e5 76 be 5c f0 86 3d
       -0.34677723 -0.043800652 -0.24111119 0.06588814
000370 d4 bb 15 3e ec 95 95 bd 00 4c f2 bc 1e f5 22 3e
       0.14622432 -0.07303986 -0.029577255 0.15913817
000380 36 62 10 be 2e 04 98 be ea 04 53 3e 87 66 84 be
       -0.14099964 -0.2969069 0.20607343 -0.25859472
000390 15 81 ed bd 68 99 08 3d 9b 0a b7 bd 70 cd d0 be
       -0.11596886 0.033349425 -0.0893757 -0.40781736
0003a0 f7 94 ac 3d 0a 73 24 be a1 d4 88 be 48 fe ac 3d
       0.0842685 -0.16059509 -0.26724723 0.08446938
0003b0 2a ef 3c be d5 51 27 be 52 fa f3 bd 83 02 08 be
       -0.18450609 -0.1633981 -0.11912979 -0.13282208
0003c0 6f 33 17 be 00 46 c3 bd 90 2b bc 3d ed 7b 92 be
       -0.14765714 -0.09534836 0.091879964 -0.28610173
0003d0 87 22 5b be c0 0b a9 3b 68 64 49 3d 82 f3 47 3e
       -0.2139989 0.0051588714 0.04916802 0.19526485
0003e0 d7 4f 7e be 90 1f e7 3d 72 c7 4d 3e 92 06 49 3e
       -0.24835144 0.11285317 0.20095614 0.19631413
0003f0 f5 9a a8 be cd 27 0a be 16 99 9b be 2a 1a 65 be
       -0.32930723 -0.13491745 -0.30390233 -0.22373262

fc.weight f4 [2, 32]
000000 e4 f9 02 be b2 f3 93 be 29 1a 84 be 51 bf a5 be
       -0.12790638 -0.28896862 -0.2580121 -0.32372525
000010 5a b4 05 be 10 29 ea bc 81 46 03 3d cd c0 a8 be
       -0.1305708 -0.028584033 0.03204966 -0.32959595
000020 45 36 17 bc 32 47 93 3d 6f f6 2b 3e 72 75 d1 3d
       -0.009229247 0.07191314 0.16793226 0.10227479
000030 ef 6a 26 3e 34 0e 6d bd bb 90 55 3d cb 3d 13 3e
       0.1625173 -0.057874873 0.05213998 0.14379041
000040 5b 3d d7 be 31 5c c1 be a4 8e 12 3d d2 af c5 3d
       -0.42038998 -0.3776565 0.035780564 0.09652676
000050 94 dd b3 bd e8 7d 9f 3c 85 3a a6 bd 00 45 37 3d
       -0.08782497 0.019469216 -0.081166305 0.044743538
000060 e0 57 ac be ee 25 15 3c bd a0 f7 bd ef 77 b9 be
       -0.33660793 0.009103281 -0.12091205 -0.36224315
000070 69 5f 65 be 75 f2 81 bd 3c 83 68 3d f0 cb e4 3d
       -0.22399677 -0.06345073 0.05676578 0.111717105
000080 6c 58 54 3d 4e 8a 51 3e 4a c0 cc 3e 4c e0 21 3e
       0.05184214 0.20462915 0.39990455 0.15808219
000090 6c 40 52 bd d0 62 23 3e 68 46 3f bd 05 ce 40 3e
       -0.05133097 0.15955663 -0.046698004 0.1882859
0000a0 43 0e 5f bd 70 e6 94 3c 80 be 8a 3c 60 74 c8 3c
       -0.05445696 0.018176287 0.01693654 0.024469554
0000b0 1e a7 18 be e8 ed 2b be ae ae 1c 3e cf 3d 1b 3e
       -0.149075 -0.16789973 0.1530101 0.15160297
0000c0 eb cf c5 3d 4f 3b 9a 3e 92 40 05 be d0 92 35 3c
       0.09658798 0.30123374 -0.13012913 0.011082366
0000d0 a9 69 28 3e 23 53 09 3e e0 fe 45 bd 6a f2 df 3d
       0.16446556 0.1341062 -0.04833877 0.10934909
0000e0 90 fb aa 3e 51 01 b9 3d a2 c6 d1 3e 54 70 2d 3e
       0.33395052 0.09033454 0.40971857 0.16937381
0000f0 12 00 3d 3e 80 1c d0 bc 88 62 d0 3c 00 56 cc 3d
       0.18457058 -0.025404215 0.025437608 0.09977341

fc.bias f4 [2]
000000 8a a9 3a be b2 79 c6 3d
       -0.18228737 0.0969118
