backend/ai/trained_gnn_model.pth (torch, 5965 bytes, 6 tensors)

conv1.bias f4 [16]
000000 d4 9f e7 3d fe 7e 3a be ec c8 5c 3d f5 22 67 be
       0.11309782 -0.18212506 0.05390255 -0.22571929
000010 03 b0 77 bd e1 0b 01 bf 01 68 b9 bd 37 48 1c be
       -0.060470592 -0.5040875 -0.0905304 -0.15261923
000020 2f d7 95 3e d2 bd 30 be 5a 3f 22 bf 9c 78 d5 bd
       0.29265735 -0.1725991 -0.63377917 -0.10423395
000030 ae 0b e8 bd 5b bd f5 3c db 01 5f 3c 3e eb 57 3e
       -0.11330353 0.029997518 0.013611282 0.21085832

conv1.lin.weight f4 [16, 3]
000000 fe db 30 3f 91 69 5e be 18 e0 2b bf 6c 4a 72 3d
       0.6908568 -0.21719958 -0.67138815 0.059153005
000010 e4 87 08 bf d9 5a 8f 3f bd 0a ca 3e ee c8 b6 3e
       -0.5333235 1.11996 0.39461318 0.35700172
000020 24 13 21 3f 09 ac 15 be 3b 56 0b 3f d8 09 11 be
       0.6291983 -0.14616407 0.5442845 -0.14163911
000030 5a 30 2f 3e 65 fa 29 bf 5f 26 d5 3e 4a 18 b7 be
       0.17108288 -0.66397697 0.41630837 -0.3576072
000040 d1 24 c4 be c2 53 23 bf b9 ab 41 3f 38 f5 02 bf
       -0.3830934 -0.6379968 0.7565265 -0.51155424
000050 2f ef 3b be 8d d1 27 bf d4 50 1b 3f f6 84 0e 3f
       -0.1835296 -0.65554124 0.6067021 0.5567163
000060 76 ce fb 3e eb 20 47 bf 7b 4a ac be c4 66 74 bf
       0.49180955 -0.77784604 -0.33650574 -0.9546931
000070 5b 09 91 bf 64 17 8a 3e 9d ff 27 be 1d 0a 16 3f
       -1.133098 0.2697097 -0.16406102 0.5860918
000080 02 db 15 bf a1 2d c8 be c8 d0 25 3d 11 db 5b bf
       -0.58537304 -0.39097312 0.040482312 -0.85881144
000090 57 03 70 3f 8d 8c 9b be ce 2e 02 3f 47 60 01 bf
       0.93755096 -0.3038067 0.5085267 -0.5053753
0000a0 be 1c c8 be ab b8 d6 3e 0a 29 32 3e c1 ca cb be
       -0.3908443 0.41937765 0.17398468 -0.39803126
0000b0 e4 17 79 3f b4 19 21 3f fa 3b ba be 23 ff 76 be
       0.9730208 0.62929845 -0.36373883 -0.24120764

conv2.bias f4 [32]
000000 4b 9e 11 3e 12 c3 92 bd 33 38 89 3d 39 21 84 be
       0.1422054 -0.07166113 0.06700172 -0.25806597
000010 87 99 81 be fd 43 71 bd 20 51 53 3e 71 b3 d2 bd
       -0.25312445 -0.05890273 0.20636415 -0.10288132
000020 5a 1e 92 be cd 6d 9a be 1b 4a a1 be 6c 30 18 3e
       -0.2853878 -0.30161896 -0.3150185 0.14862221
000030 af 85 da bb 76 cf 81 be 00 00 00 00 88 39 d6 be
       -0.0066687684 -0.25353593 0.0 -0.41840768
000040 ea 71 83 be f8 de 23 be c8 a2 94 3e 68 18 bf bd
       -0.25672847 -0.16003025 0.29030442 -0.09330827
000050 a9 23 9c 3e 79 ae 21 be a0 7f 96 be b0 a9 48 3d
       0.30495957 -0.15789212 -0.29394245 0.04898995
000060 78 75 9a bd d2 7f 5a 3e 00 a6 fe bd 40 16 8b be
       -0.07541937 0.21337822 -0.12434006 -0.27165413
000070 26 09 bc be 92 1d ba bd 97 f4 a6 3b 57 8f 43 be
       -0.3672573 -0.09087671 0.0050950754 -0.19097649

conv2.lin.weight f4 [32, 16]
000000 57 02 2a 3e 7c 5e 51 bd 68 9c 65 3e 6a 54 2e be
       0.16602455 -0.051115498 0.22422945 -0.17024389
000010 83 0b 2e bf c0 5b 5a 3f fa 5d 8d 3d 00 da 8b 3e
       -0.67986315 0.8529625 0.0690269 0.27314758
000020 bf 55 9b 3e 71 8f c3 bf f2 24 05 3d fd dc 1c 3f
       0.30338857 -1.527815 0.032505937 0.612747
000030 d3 2e 0b c0 16 bc 0b be 55 9d 8e be 92 02 41 be
       -2.174733 -0.13645968 -0.2785441 -0.18848637
000040 15 72 a1 bd 5c 1a 95 be c8 95 33 bd c0 55 13 3e
       -0.078830875 -0.29121673 -0.043844014 0.1438818
000050 2b ba d5 be 8d 59 09 3d 30 56 9c be 80 b1 30 be
       -0.41743597 0.033532668 -0.30534506 -0.17255211
000060 2c 41 83 3d 23 7d 56 3e 88 e5 c5 bd 36 ff 5d be
       0.06408915 0.20946173 -0.0966292 -0.21679386
000070 26 af a3 be 18 08 82 be d9 81 9e be cb 31 1c be
       -0.31969565 -0.253968 -0.3095844 -0.1525337
000080 15 04 4b bd 29 86 28 bf 94 5e 15 3f d0 34 bb 3c
       -0.04956444 -0.6582971 0.5834744 0.022852331
000090 e9 f5 96 bf 1c 93 0d 3f 0a a4 03 3e 00 65 ce bf
       -1.1793796 0.55302596 0.12855545 -1.6124573
0000a0 42 07 d5 3d ab ac 80 bf c8 3e 01 3e c6 34 84 be
       0.10401775 -1.0052694 0.12621605 -0.25821513
0000b0 15 1d d1 3e 2b 85 dc 3e 7f af 09 bd 46 30 96 3e
       0.408425 0.4307035 -0.03361463 0.29333705
0000c0 b1 60 8e be d5 15 12 be c5 36 36 3e 25 5e f0 3d
       -0.27808145 -0.14266141 0.1779433 0.11736707
0000d0 b0 f6 1c be f1 e0 b9 3d fa c7 11 bf fa c0 16 3e
       -0.15328479 0.09076107 -0.56945765 0.14722052
0000e0 bd 40 77 be 22 62 42 be a4 3e b2 bd b0 78 c8 bd
       -0.2414579 -0.18982747 -0.08703354 -0.09788644
0000f0 56 72 f0 3e e4 83 f2 be b3 81 d9 3d c6 58 1d be
       0.4696223 -0.4736625 0.10620441 -0.15365896
000100 2d 2d 7f 3e 83 5c c9 3d 21 da b9 bf 73 89 ee 3e
       0.24919577 0.09832098 -1.4519693 0.4658924
000110 4d 83 17 be b2 fe a5 bd be 70 9d be 3b 79 85 3d
       -0.14796181 -0.0810522 -0.30750078 0.065172635
000120 18 66 10 3e 95 3d dd 3e 12 6a 0d be 2a bb 8f 3d
       0.14101446 0.43211046 -0.13809994 0.070181206
000130 9e 63 e3 be ce 80 e6 3e 7c 56 04 bf c7 23 11 be
       -0.4441194 0.45020145 -0.51694465 -0.14173804
000140 83 be 8a bf 2b a2 ff be bd 7f ff 3e 1e 2e cf 3e
       -1.083939 -0.49928412 0.49902144 0.40464872
000150 09 3c 87 3e 90 f9 0c 3f d6 03 4d bf 8f ec 20 be
       0.2641299 0.550683 -0.8008398 -0.1571524
000160 f2 6a dc bd 1f c2 fb 3e a7 8d 20 bd b3 6f f8 3e
       -0.10762586 0.4917154 -0.03919759 0.4852272
000170 5c 4e 62 3f 3b a5 2a be 67 ed e9 be cc 68 58 bf
       0.88400817 -0.16664593 -0.45688936 -0.8453491
000180 df e6 38 3d 62 62 40 bf 67 33 03 3f a2 5b 6b 3d
       0.04514205 -0.7515012 0.5125031 0.057460435
000190 0e 8c 8b bf 83 69 e8 3e be 72 12 3d 2b 90 d0 3e
       -1.0902116 0.45393 0.035753958 0.4073499
0001a0 79 7d bb 3e 9e a2 eb bf 16 7f ee 3e 7a db 84 3e
       0.36619166 -1.8409002 0.46581334 0.25948697
0001b0 85 50 ae 3d f8 8d 97 be 9f 5f 09 bd 08 51 76 bd
       0.08511452 -0.296005 -0.033538457 -0.06013587
0001c0 6c f9 3b be 7a f3 c1 3d e2 cb 4a 3d 8b d1 32 3e
       -0.18356866 0.094702676 0.049510844 0.17462747
0001d0 3d 79 6e be 1a 40 e6 3c a7 37 48 3d f9 87 c7 be
       -0.23288436 0.028106738 0.0488812 -0.38970926
0001e0 55 66 d5 be e4 7d 94 be e7 04 12 3e 7a 70 db be
       -0.41679636 -0.29002297 0.14259683 -0.4285925
0001f0 35 0c b0 be c3 51 bb 3d 97 a2 16 3e 4d fa 5d 3e
       -0.34384313 0.09146454 0.1471046 0.21677513
000200 d4 c4 6f be 20 2b ef be 71 fe c7 3e 1b 3c f9 3e
       -0.23414928 -0.4671259 0.3906131 0.4867867
000210 42 c7 2e be 78 90 27 3d db 72 12 bf 5d c8 04 3f
       -0.17068198 0.04090926 -0.57206506 0.5186823
000220 93 e8 f0 be 75 51 a2 3e c4 42 62 3f 73 37 e0 be
       -0.4705244 0.31702772 0.88383126 -0.43792304
000230 25 06 ba bf 8b 3a 96 3e 66 49 34 be de f4 34 bf
       -1.4533125 0.2934154 -0.17606124 -0.7068614
000240 d9 29 56 3e 84 c6 cb bd 77 71 22 3f b2 6e 45 3e
       0.20914401 -0.09949973 0.63454384 0.19280508
000250 f9 eb ba be 02 6a 49 3e ef 06 fd be 16 cc 1d 3f
       -0.36508158 0.19669345 -0.49419352 0.61639535
000260 54 7e 0d be dc 44 b7 ba fd 90 2e 3f c0 59 d5 be
       -0.13817722 -0.0013982314 0.68189985 -0.41670036
000270 3a 41 d7 bf 7d e4 5d bc fa cf 4f bd d2 2e 7d bf
       -1.681678 -0.013543245 -0.05073545 -0.9889957
000280 94 a9 f5 bd de c9 04 3f 62 c1 78 3e d0 bf b5 3e
       -0.11995235 0.51870525 0.2429252 0.35497904
000290 1d 68 b5 3d 2a ad 8f 3e 68 29 57 3e 1e 4c de bc
       0.08857749 0.280618 0.21011889 -0.027135905
0002a0 11 a7 e4 be da bb 82 bd 7f 08 ef 3e e5 7a 04 3f
       -0.44658712 -0.06383486 0.4668617 0.5175002
0002b0 d9 23 a5 3e 5b 86 9c be 23 ee ce 3e ea bf b8 3d
       0.32253912 -0.30571255 0.4041606 0.0902098
0002c0 e0 fd 88 be 30 a4 4b bf 88 14 1f 3f 92 47 09 bd
       -0.2675619 -0.79547405 0.62140703 -0.03351552
0002d0 09 61 70 bf 72 94 56 3f b6 bd de bd c6 84 f5 3e
       -0.93898064 0.8382026 -0.10876028 0.4795286
0002e0 99 fa cc 3e 9b ac f8 bf b1 60 c0 3e 2a 75 86 be
       0.4003494 -1.9427675 0.3757377 -0.26261264
0002f0 01 b2 3a be 16 fc ad be dd 86 23 be 78 92 d2 3e
       -0.18231966 -0.3398139 -0.15969415 0.41127372
000300 36 49 15 be 67 80 ac 3e 41 1c c8 be 92 85 38 3e
       -0.14578709 0.33691713 -0.39084056 0.18019703
000310 d8 78 91 bd 8f fd c3 be c0 9a 3e bc 35 c3 d3 3e
       -0.07103127 -0.38279387 -0.011633575 0.4135987
000320 81 5d 8b 3e 22 09 f7 bd a6 b9 a2 be 46 d0 1b be
       0.27219775 -0.12062289 -0.31782264 -0.15216169
000330 02 fb af be 05 16 7d 3e 32 f9 6b 3e 64 11 19 be
       -0.3437119 0.24715431 0.23044279 -0.1494804
000340 79 43 a6 3d c9 7a bc 3e cd 24 88 3c 40 16 bd 3e
       0.08118338 0.36812428 0.01661911 0.36931038
000350 65 53 b2 3e 71 eb 1a 3f e8 cc c1 bd 75 f5 b3 3d
       0.3482925 0.60515505 -0.09462911 0.087870516
000360 6d 6c d1 be a7 c3 42 be 65 6d e9 3e 54 7e 87 3e
       -0.40903035 -0.19019948 0.45591274 0.26463568
000370 d6 9c ce 3e 53 58 a3 be 15 b7 04 3f eb a4 2e be
       0.4035403 -0.31903324 0.5184186 -0.17055099
000380 b3 96 9e be d5 35 47 be 5b 03 83 be be 8e 33 3e
       -0.3097435 -0.19454129 -0.25588498 0.1753492
000390 ae c3 72 be c0 50 f1 bc 50 39 9c 3d 43 8a 46 be
       -0.23707458 -0.02945745 0.07628119 -0.1938868
0003a0 e8 df d0 3d 63 c0 b0 be 57 85 81 be 9e 06 a4 be
       0.10198957 -0.3452178 -0.25297043 -0.320363
0003b0 5a 04 db bd c6 e3 03 be b8 5d 4f 3d 74 e4 85 bd
       -0.10694189 -0.12879857 0.050626487 -0.065377146
0003c0 93 49 7b 3d 91 27 83 3e 51 b4 dd 3e 04 fe 40 be
       0.061349463 0.25616124 0.43301633 -0.188469
0003d0 77 84 d8 be aa 4e df 3e 82 a0 46 be 87 7a ae 3d
       -0.42288563 0.43614703 -0.19397166 0.08519464
0003e0 ab 9e 07 bf c8 16 92 3d 4a 9c fc 3e b8 43 03 3f
       -0.52976483 0.071332514 0.4933799 0.51275206
0003f0 2b 06 93 3e f7 8f a4 be b8 e2 e1 3e 14 76 f2 be
       0.28715643 -0.32141086 0.44118285 -0.4735571

fc.weight f4 [2, 32]
000000 f9 1b 43 3f dc bb 96 bd e6 93 78 3e 94 dd 85 be
       0.7621456 -0.0736005 0.24275169 -0.26145613
000010 6f bf 03 3f 5c c2 59 bf 07 27 c3 3e 90 91 37 3e
       0.5146398 -0.85062194 0.38115713 0.17926621
000020 7c 66 11 3f b4 02 1d 3f 2a 6b 04 bf 1a 35 2b 3f
       0.56797004 0.6133225 -0.5172602 0.668779
000030 0e d8 56 be d2 0c c6 be 11 b2 32 3e a2 82 a4 be
       -0.20980856 -0.38681656 0.1745074 -0.32130915
000040 30 46 0f bc 91 3f 00 3e 17 eb 1c bf b9 96 b5 bd
       -0.008744761 0.12524249 -0.6129622 -0.08866639
000050 cb ec 80 bf 83 02 b5 3e fe 59 80 be 0f 6f 78 be
       -1.0072263 0.3535348 -0.2506866 -0.24261115
000060 d2 03 a4 3d a1 82 31 bf 3e 26 ae be a4 d5 9b be
       0.08008541 -0.6933995 -0.3401355 -0.30436432
000070 af ca 05 3f 78 01 30 3e 22 f0 8b bf 54 c3 d6 3e
       0.52262396 0.1718806 -1.0932658 0.419459
000080 8d 97 4c bf d7 d5 1b bd d8 05 ae be 4e d5 3c 3e
       -0.7991875 -0.03804573 -0.33988833 0.18440744
000090 05 bd 4b be 60 4f 4d 3f ad 33 e1 be 60 21 22 3e
       -0.19896324 0.8019924 -0.43984738 0.15833044
0000a0 a1 74 ee be 91 a0 ef be dd 0c f8 3e 9b 31 b2 be
       -0.46573356 -0.4680219 0.48447314 -0.3480347
0000b0 b5 14 2b 3d ab bb c0 3e 38 e3 f5 bd da 76 86 3e
       0.041767795 0.3764318 -0.12006229 0.26262552
0000c0 80 57 02 be 0e 06 10 bb 6c fb f6 3e a5 b9 6b bd
       -0.12728691 -0.0021976265 0.48238695 -0.05755009
0000d0 ad 07 81 3f 85 fc b9 be e4 7a ee 3e 42 c9 49 3e
       1.0080467 -0.3632547 0.46578133 0.1970568
0000e0 d6 72 c5 3c f2 7e 2f 3f 92 b9 c7 3e 3b 91 09 3e
       0.02410261 0.6855308 0.39008766 0.13434307
0000f0 a4 65 d4 be 69 c3 cf bd c6 25 4a 3f 7f d9 d7 be
       -0.41483796 -0.101446934 0.7896389 -0.42158124

fc.bias f4 [2]
000000 31 07 c4 bd 94 88 45 3d
       -0.09571684 0.048225954
